Assets/PlayerBrains/MovePaddle.onnx (onnx, 75705 bytes, 8 tensors)

49 f4 [10]
0	0x411c16d3	9.755572
1	0x3ee4eeef	0.44713542
2	0x3e3fb167	0.18720017
3	0x3ab95cfd	0.0014142093
4	0x418c3f2a	17.530842
5	0x3ba03c25	0.0048899823
6	0x3ab95cfd	0.0014142093
7	0x3ab95cfd	0.0014142093
8	0x419c41d6	19.532146
9	0x4108f323	8.55936

action_model._discrete_distribution.branches.0.bias f4 [3]
0	0xbd9a2c2a	-0.07527955
1	0x3d0f8d03	0.03504659
2	0x3d1f402f	0.03887957

action_model._discrete_distribution.branches.0.weight f4 [3, 128]
0	0x3cc999c0	0.024609447
1	0x3bbd4f53	0.0057772784
2	0xbbb1ee79	-0.0054300395
3	0xbc1cdcd5	-0.009574135
4	0x3c061687	0.008184082
5	0xbc4ea567	-0.012612677
6	0xbcbf848b	-0.023378631
7	0xbc94c960	-0.01816243
8	0xbc4dae1b	-0.012553717
9	0x3b9b7ecd	0.0047453404
10	0xbc4a8395	-0.012360473
11	0x3c95e718	0.01829867
12	0x3cf01d87	0.029310955
13	0x3d0659d6	0.032800518
14	0x3bfd4c03	0.0077300086
15	0xbc6449d9	-0.013933622
16	0x3c1600ac	0.009155434
17	0xbcf520c3	-0.029922849
18	0xbcc29a51	-0.023755224
19	0xbb6fcbd7	-0.0036590004
20	0xbb44b20e	-0.0030013355
21	0x3b814516	0.0039450033
22	0x3d3d9a82	0.04628993
23	0x3cdf5889	0.027263897
24	0xbb90d436	-0.0044198288
25	0x3c5be899	0.013422155
26	0x3d0440eb	0.032288473
27	0x3bceaa6f	0.0063069384
28	0xbc329018	-0.010898612
29	0xbb8aa750	-0.004231371
30	0xbc481f93	-0.012214559
31	0xbd59eeed	-0.053206373
32	0x3ccd7ead	0.025084818
33	0xba2ba828	-0.00065481896
34	0xbd16c723	-0.036811005
35	0x3a1b129a	0.00059155526
36	0xbd03c128	-0.03216663
37	0x3c75d2fe	0.015003918
38	0xbc85a771	-0.016315194
39	0xbbd45b30	-0.006480597
40	0x39f0f371	0.00045957745
41	0x3c7dded6	0.015495023
42	0x3cbcf406	0.023065578
43	0xbbc0f20b	-0.005888229
44	0x3b1bae3e	0.002375498
45	0xbce65343	-0.028115874
46	0x3cfe8115	0.03106741
47	0x3d06b852	0.032890625
48	0x3cb977bb	0.0226401
49	0x3b4a0512	0.0030825776
50	0x3bb88b04	0.0056318063
51	0xbc3d24dd	-0.011544433
52	0xbc883764	-0.016627975
53	0xbc043da3	-0.008071336
54	0xbcd4d719	-0.025981473
55	0xbd03d2a6	-0.032183312
56	0xbce484b6	-0.027895313
57	0xbc4e62dd	-0.012596813
58	0x3a6835b1	0.00088580983
59	0xbc87aad8	-0.016560957
60	0xbd3faea8	-0.046797425
61	0xbad00e4c	-0.0015873401
62	0x3c246106	0.010032898
63	0x3d05312b	0.032517593
64	0x3c64886d	0.013948542
65	0xbd32c8e4	-0.043648615
66	0x3c5d66fc	0.013513323
67	0x3d6f26b5	0.058386523
68	0xbbc99284	-0.006151499
69	0xbb445b40	-0.0029961616
70	0xbca2b199	-0.019860076
71	0x3d244a0d	0.040109683
72	0x3bbd0f56	0.0057696505
73	0xbb527a1f	-0.0032116247
74	0x3cd8d611	0.026469262
75	0xbb6e5b94	-0.0036370503
76	0x3cf01dea	0.02931114
77	0x3bcbde2d	0.006221554
78	0xbb824cbf	-0.003976434
79	0xbc9f28d3	-0.019428646
80	0xbc1b74dd	-0.009488312
81	0x3c5ca4fe	0.013467072
82	0xbc6431af	-0.013927861
83	0x3be33877	0.0069342214
84	0xbcaa16f7	-0.020762904
85	0x3cd1ed65	0.025625894
86	0x3c2e5b64	0.010641906
87	0xbd0bda46	-0.03414371
88	0x3d25ace0	0.04044807
89	0x3c4a256a	0.012338022
90	0xbcbcf501	-0.023066046
91	0x3a9b2f3e	0.0011839641
92	0x3c22b154	0.009929974
93	0x3cd435c0	0.025904536
94	0x3c8d4c09	0.01724817
95	0xbcf2378e	-0.029567506
96	0xbb9c95ab	-0.004778584
97	0xbce2207a	-0.027603377
98	0xbc064b67	-0.008196688
99	0xbbae782d	-0.0053243847
100	0xbb258b14	-0.00252599
101	0x3c6c1f6d	0.014411789
102	0x3c921a28	0.017834738
103	0x3c6ba307	0.0143821305
104	0xbc61e9ed	-0.013788682
105	0x3c335de4	0.010947678
106	0x3c5040b6	0.012710741
107	0xbd12d062	-0.03584326
108	0xbcbe5232	-0.023232553
109	0x3cdb240c	0.026750587
110	0xbc46d036	-0.012134602
111	0x3c27f510	0.010251299
112	0xbba0b878	-0.004904803
113	0x3b02e6f7	0.0019974092
114	0xbb3583dc	-0.0027697003
115	0xbccf8f8e	-0.025337007
116	0xbbe9424c	-0.007118499
117	0xbbe74784	-0.007058086
118	0x3c45a7fb	0.012063975
119	0xbd1b02b4	-0.037844375
120	0x3d0c5eb6	0.03427001
121	0xbba4a2bd	-0.0050242827
122	0x3c1b73ed	0.009488088
123	0xbc6e8d7b	-0.014560099
124	0x39d6328e	0.00040854927
125	0x3c1458ae	0.009054346
126	0x3c1ba482	0.009499671
127	0x3c9f2771	0.019427987
128	0x3b9f3d6a	0.004859616
129	0xbd8e0aec	-0.06935677
130	0xbccb04f3	-0.024782633
131	0x3d4c62f3	0.049899053
132	0xbcfed117	-0.031105561
133	0x3d302fe6	0.04301443
134	0x3d6439a9	0.05571905
135	0xbc7004b8	-0.014649563
136	0x3cf64a84	0.030064829
137	0xba8ec78b	-0.0010893209
138	0xbc942fe2	-0.018089239
139	0xbd376d50	-0.044781983
140	0xbca70ec6	-0.020392787
141	0x3cf3176b	0.029674252
142	0xbd5ee77c	-0.05441998
143	0x3d2d1031	0.04225177
144	0xbd5b93e9	-0.053607855
145	0x3d9c573e	0.076338276
146	0xbcda84b8	-0.026674613
147	0xbce78293	-0.028260505
148	0xbd27216f	-0.04080337
149	0x3d2ebcd5	0.042660553
150	0xbc459c00	-0.012061119
151	0x3c54a7eb	0.012979488
152	0xbc1dc967	-0.009630538
153	0xbd82175d	-0.063521124
154	0xbb1f10c8	-0.0024271477
155	0x3cfac7a7	0.03061278
156	0xbc3fd4b3	-0.011708426
157	0x3bcc5a57	0.0062363553
158	0x3d53f438	0.051746577
159	0x3d9dbd12	0.07702078
160	0xbbd3df9a	-0.0064658644
161	0xbbe90d1d	-0.007112159
162	0x3ba2a992	0.004964062
163	0x3ce65a5b	0.028119257
164	0x3da190b2	0.078889266
165	0xbd2d19fe	-0.042261116
166	0x3d39d8c7	0.04537275
167	0x3b2d21b7	0.00264178
168	0xbd89661c	-0.06708929
169	0xbd37425b	-0.044741016
170	0xbd0cabca	-0.03434352
171	0xbd4cba06	-0.049982093
172	0xbc96fad7	-0.018430157
173	0x3dac3571	0.08408631
174	0xbcd4db7e	-0.025983568
175	0xbcc97949	-0.024593966
176	0xbb3cf1ba	-0.0028830604
177	0xbd382da2	-0.044965394
178	0xbdc9b3e1	-0.09848762
179	0xbc0f897d	-0.008760807
180	0xbcbc2d6b	-0.022970876
181	0xbd4d2723	-0.05008615
182	0x3da57b30	0.08080137
183	0xbd21ebf3	-0.03953166
184	0x3d674400	0.056461334
185	0xbd262d6a	-0.040570654
186	0xbd84f223	-0.064914964
187	0xbc34cf98	-0.011035822
188	0x3d63da7f	0.055628296
189	0xbcbbf405	-0.022943506
190	0xbbc72d7b	-0.0060784197
191	0xbd16027a	-0.036623456
192	0xbcb638ed	-0.022243941
193	0x3de36da1	0.111048944
194	0x3c8585d7	0.016299171
195	0xbc65602c	-0.01399998
196	0x3c66c7a8	0.014085688
197	0xbd93cce6	-0.07216816
198	0x3cf9e436	0.030504327
199	0x3bf78611	0.0075538238
200	0xbbd116ff	-0.006380915
201	0xbc83b63f	-0.016078113
202	0xbcf6b435	-0.030115226
203	0x3c6bee1e	0.014400033
204	0x3c82c302	0.015962128
205	0xbd5f6087	-0.054535415
206	0xbd98edb2	-0.07467212
207	0xbd1df3ef	-0.03856271
208	0xbc104dbe	-0.008807598
209	0x3c19f0fc	0.009395834
210	0x3d65465d	0.055975307
211	0xbd3b2d8a	-0.045697726
212	0xbce79b64	-0.028272338
213	0x3ba456cc	0.00501523
214	0x3d1404f4	0.036137536
215	0xbcd9fbf5	-0.0266094
216	0x3d15d60e	0.03658109
217	0x3cc9cae0	0.024632871
218	0x3d11c202	0.03558541
219	0xbdb68302	-0.089117065
220	0xbd30b5de	-0.043142192
221	0x3c4b57b7	0.01241105
222	0xbc3d9e26	-0.01157335
223	0x3d571eac	0.052519485
224	0xbb7a3fc6	-0.0038184985
225	0xbd8678d4	-0.06566015
226	0xbd4e0a52	-0.05030281
227	0xbd9eceab	-0.077542625
228	0xbcdca98a	-0.026936311
229	0x3c41fb5b	0.011839713
230	0x3be2e6cc	0.006924486
231	0xbd71cb48	-0.059031755
232	0x3be304d7	0.006928067
233	0x3aeee48c	0.0018226071
234	0x3c4af41d	0.012387303
235	0xbb81ad6a	-0.00395744
236	0xbbc9010c	-0.006134158
237	0x3b26eb0d	0.002546969
238	0xbcfd30dd	-0.030907089
239	0x3c8db631	0.01729879
240	0x3bc82d93	0.0061089485
241	0x3d088e0d	0.033338595
242	0x3c13c21b	0.009018446
243	0xbb7a9a15	-0.0038238813
244	0xbd83d013	-0.064361714
245	0x3d601a8a	0.05471281
246	0xbc861132	-0.016365621
247	0x3d9fcc6a	0.07802661
248	0xbb934ba3	-0.0044951006
249	0xbb3908df	-0.0028234047
250	0x3be045df	0.006844267
251	0x3bc56ee6	0.006025183
252	0xbc16e50e	-0.009209884
253	0xbd7068ea	-0.058693804
254	0x3d262397	0.040561285
255	0x3d0a5553	0.033772778

network_body._body_endoder.seq_layers.0.bias f4 [128]
0	0xbda27147	-0.07931762
1	0xba5f70ed	-0.0008523602
2	0x3c4bc425	0.012436901
3	0xbbbe60e9	-0.0058098924
4	0x3c303221	0.010754139
5	0xbd4f7336	-0.050646983
6	0xbce89173	-0.028389668
7	0xbce243d8	-0.027620241
8	0x3c934388	0.017976537
9	0xbd0154ce	-0.031575017
10	0xbd03641d	-0.032077897
11	0xbb201d73	-0.0024431616
12	0x3d98b215	0.074558415
13	0x3c6c0495	0.014405389
14	0x3c488c3d	0.012240467
15	0x3ca776e3	0.020442432
16	0xbce65fb4	-0.028121807
17	0xbcc63626	-0.024195742
18	0xbd02afdb	-0.03190599
19	0xbba1eda6	-0.00494166
20	0xbd14fa7d	-0.036371697
21	0x3cdc7104	0.026909359
22	0x3cf26b94	0.029592313
23	0x38f00236	0.000114445036
24	0xbce87bc6	-0.028379332
25	0xbb422d37	-0.0029629
26	0x3c615486	0.013753062
27	0xbd2b5aaa	-0.04183451
28	0x3c047245	0.008083885
29	0xbd7be64e	-0.061498933
30	0x3d3dcff9	0.046340916
31	0xbca654c9	-0.0203041
32	0x3b8c93ca	0.0042900788
33	0xbb1616f6	-0.002290187
34	0xbd8675bb	-0.06565424
35	0xbd072a24	-0.032999173
36	0xbc2f817c	-0.010712024
37	0xbd1a8206	-0.037721656
38	0x3d1ef0ca	0.038803853
39	0x3c83a434	0.01606951
40	0xbd4e63bc	-0.050388083
41	0xbcd0d7f2	-0.025493596
42	0xbc41a2f7	-0.011818639
43	0xbd095a1b	-0.033533197
44	0x3cd9a288	0.026566759
45	0x3cce1c17	0.025159879
46	0xbbd4156e	-0.006472281
47	0xbd16f717	-0.036856737
48	0xbc94af47	-0.018149985
49	0xbcf9e880	-0.030506372
50	0xbc429181	-0.011875511
51	0x3d278fc5	0.040908594
52	0x3d16fabe	0.03686022
53	0x3bb5093e	0.0055247834
54	0x3c1223d5	0.008919676
55	0xbd232c37	-0.03983709
56	0xbc8c6ff9	-0.017143236
57	0x3d24ca7a	0.04023216
58	0xba1a8cf2	-0.0005895636
59	0xbcb70232	-0.022339914
60	0x3c74923a	0.014927441
61	0xbd1bc828	-0.03803268
62	0xbcd58f38	-0.026069269
63	0xbcdfafed	-0.027305568
64	0x3c9b1239	0.018929588
65	0x3c43ab49	0.011942693
66	0xbb4cf67f	-0.0031274853
67	0xbd8200aa	-0.06347783
68	0x3c2619c1	0.010137976
69	0xbc71feac	-0.014770191
70	0x3b4262df	0.0029660983
71	0xbc1ada29	-0.0094514275
72	0xbd3256a3	-0.043539654
73	0xbcc4b2f0	-0.024011105
74	0xbaa35c75	-0.0012463467
75	0x3c97797c	0.018490545
76	0x3c11e3aa	0.008904377
77	0xbc2829ac	-0.010263842
78	0xbd8d18e7	-0.06889515
79	0x3cd9a644	0.02656854
80	0xbc917c73	-0.017759537
81	0x3d2708ee	0.04078
82	0x3c81d851	0.015850218
83	0xbd076e40	-0.033064127
84	0x3d32b6d2	0.043631382
85	0xbc15c395	-0.009140869
86	0x3d266540	0.040623903
87	0xbc331b30	-0.010931775
88	0x3d15f7a7	0.036613133
89	0xbd06483e	-0.03278374
90	0xbacae8b3	-0.0015480727
91	0xbc82467a	-0.015902746
92	0xbdaa489a	-0.08314629
93	0xbd4f5869	-0.050621424
94	0x3c23ac8a	0.009989867
95	0x3d1db508	0.038502723
96	0xbbf11690	-0.007357426
97	0xbd62d1f4	-0.05537601
98	0x3c8553af	0.016275255
99	0xbd746f70	-0.059676588
100	0xbd13bd2f	-0.03606909
101	0x3d28fb2b	0.041255157
102	0x3d02b81e	0.03191387
103	0xbd8303b9	-0.063971944
104	0x3caf0ddb	0.021368911
105	0xbd4d5416	-0.05012902
106	0xbd935bdd	-0.07195256
107	0xbd3fdae8	-0.046839625
108	0x3c62dd7a	0.013846749
109	0xbcd223ba	-0.025651801
110	0x3c1cda15	0.009573479
111	0xbd8fcf24	-0.07021931
112	0xbc7bca41	-0.015368045
113	0x39894592	0.0002618251
114	0x3d291f88	0.041289836
115	0x3cda2d02	0.02663279
116	0xbc38fc29	-0.011290588
117	0x3ccd9dc7	0.025099648
118	0xbd8fe022	-0.07025172
119	0x3abd1213	0.0014424942
120	0x3b8fe175	0.0043908902
121	0x3c69afc1	0.014263094
122	0x3b5d7641	0.0033792409
123	0x3c3f72bf	0.011685072
124	0xbca64e5b	-0.020301035
125	0xbdb7a92f	-0.08967816
126	0xbcea312a	-0.028587896
127	0xbc8a7945	-0.016903529

network_body._body_endoder.seq_layers.0.weight f4 [128, 10]
0	0x3eba5f16	0.3640067
1	0x3e217e17	0.15770756
2	0xbe2f8dce	-0.17143938
3	0x3e861e9e	0.26195234
4	0xbe8d74f4	-0.2762829
5	0x3b0490c0	0.002022788
6	0x3ebaee7c	0.36510074
7	0xbf10ec83	-0.5661089
8	0xbd0bc383	-0.034122
9	0x3f117e79	0.56833607
10	0xbee1e81a	-0.44122392
11	0x3df48db1	0.11941088
12	0xbd749c71	-0.059719507
13	0x3e28ed77	0.16496836
14	0x3cebf8d0	0.028805166
15	0x3cc8a614	0.024493255
16	0x3df5642b	0.11981996
17	0xbe4a2cb9	-0.19743623
18	0xbb1deb67	-0.002409661
19	0x3eb0fdb0	0.34568548
20	0xbccd30b0	-0.02504763
21	0xbe6c68e3	-0.23086886
22	0x3f1f1726	0.62144697
23	0x3dba5ee7	0.091001324
24	0x3e8bd83d	0.27313414
25	0x3e3fb962	0.18723062
26	0xbda6f3d6	-0.08151977
27	0xbc3b6c45	-0.011439388
28	0x3e3639b4	0.1779545
29	0xbe847504	-0.25870526
30	0x3ea36191	0.31910375
31	0xbef928cf	-0.48663947
32	0xbd3aebaf	-0.04563492
33	0xbe88256a	-0.26591045
34	0x3dab410d	0.08362017
35	0xbdd6802f	-0.10473668
36	0xbd841e0b	-0.06451043
37	0x3f0b91bd	0.54519254
38	0xbd849017	-0.064727955
39	0x3d061d70	0.032742918
40	0xbd03a8ac	-0.03214328
41	0xbf0338fd	-0.5125883
42	0xbcd4d48a	-0.025980253
43	0xbf4ded62	-0.8044034
44	0xbede4e6d	-0.4341921
45	0x3d24b60c	0.040212676
46	0x3eb9e3d0	0.3630662
47	0x3d6bdd3b	0.05758403
48	0x39bb1517	0.00035683133
49	0xbe442282	-0.19153789
50	0x3e133164	0.1437431
51	0x3d9a5fd8	0.07537812
52	0xbe860e72	-0.26182896
53	0x3e5a742c	0.21333379
54	0x3e9ab490	0.30215883
55	0xbebc6cfa	-0.36801893
56	0x3ed197df	0.4093618
57	0xbecf7c1a	-0.4052437
58	0xbe94baa2	-0.2904864
59	0xbe023cef	-0.12718557
60	0x3d1cf2d6	0.038317524
61	0x3ec5bb0e	0.38619274
62	0xbf07302c	-0.5280788
63	0x3b960589	0.0045782966
64	0xbe2115ae	-0.15730926
65	0xbee96c95	-0.45590654
66	0xbc29dce9	-0.0103676105
67	0xbe742fba	-0.23846331
68	0x3dc77d2a	0.0974067
69	0x3e87e5a2	0.26542383
70	0x3e71e8ef	0.23624013
71	0xbeab9788	-0.33514047
72	0xbee3f65e	-0.445239
73	0xbf007a7f	-0.50186914
74	0x3d4d95dd	0.05019175
75	0xbd4ab6f3	-0.04949088
76	0x3ef69297	0.48158714
77	0x3eb885ae	0.3603949
78	0xbe2498bb	-0.16073887
79	0x3ea3cc2a	0.31991702
80	0x3e3a96e5	0.18221624
81	0x3ed42e85	0.41441742
82	0x3e70eec9	0.2352859
83	0x3eaee477	0.3415868
84	0xbebc21ca	-0.3674453
85	0xbed256d2	-0.41081864
86	0xbdc361b5	-0.095401205
87	0x3de7c2e9	0.11316473
88	0xbe211a3e	-0.15732667
89	0xbe8edb08	-0.27901483
90	0x3f45fd76	0.77339876
91	0x3ea31a7c	0.31856143
92	0x3d0196f0	0.031638086
93	0xbd6998cb	-0.05703048
94	0x3e03ba81	0.12864114
95	0xbc7631ea	-0.015026549
96	0xbece8bcb	-0.4034103
97	0xbe9db44d	-0.3080162
98	0xbe3af50a	-0.18257537
99	0x3e37a35b	0.17933409
100	0x3e57eb07	0.2108575
101	0x3e13c95c	0.14432281
102	0x3debe911	0.11519063
103	0x3e543b0a	0.20725647
104	0xbe581281	-0.21100809
105	0x3c0340b6	0.008011034
106	0xbebe3ad9	-0.37154272
107	0x3e740c79	0.23832883
108	0xbf922e8a	-1.1420453
109	0x3e590686	0.21193895
110	0x3e878064	0.26465142
111	0xbeb5865d	-0.35454074
112	0xbe8467a0	-0.2586031
113	0xbf28a73b	-0.65880173
114	0xbc36db3a	-0.011160666
115	0xbf38504d	-0.7199753
116	0xbf2980fe	-0.6621245
117	0xbe16510e	-0.14679357
118	0xbda81de8	-0.08208829
119	0xbdbf36f3	-0.093366526
120	0xbe141bed	-0.14463778
121	0x3f57ce4b	0.84299153
122	0xbd0bbbbb	-0.03411458
123	0xbf111c99	-0.5668426
124	0xbe9112b4	-0.28334582
125	0xbf114c20	-0.5675678
126	0xbe7282ee	-0.23682758
127	0xbe2a1920	-0.16611147
128	0x3ec07b78	0.375942
129	0x3ed54602	0.41654974
130	0xbd1767a0	-0.03696406
131	0x3e279939	0.16367044
132	0x3de64067	0.112427525
133	0x3c85814a	0.016297001
134	0x3c0f0c84	0.008731011
135	0x3e7be83f	0.24600314
136	0x3eb99877	0.36249134
137	0xbeffa9fe	-0.4993438
138	0x3e5f3c1f	0.21800278
139	0xbcd14f08	-0.02555038
140	0xbf0318b6	-0.5120958
141	0xbc918329	-0.017762737
142	0xbf049c65	-0.5180114
143	0x3f1f59d6	0.62246454
144	0xbd74c94a	-0.059762277
145	0x3ed1c70f	0.40972182
146	0x3e8036f9	0.2504194
147	0x3efcb526	0.49356955
148	0x3e6c7ddc	0.23094887
149	0xbea749e9	-0.32673576
150	0xbb06484d	-0.0020489872
151	0x3efd493b	0.49469933
152	0x3e060c23	0.13090567
153	0x3e7976cb	0.24361722
154	0xbefb6fc3	-0.49108705
155	0xbe200613	-0.15627317
156	0x3e8a293f	0.26984593
157	0x3ed0f1fb	0.40809616
158	0xbefb80b3	-0.49121627
159	0x3e0c8f58	0.13726556
160	0x3f00b4d6	0.50275934
161	0x3eacd31f	0.33754823
162	0xbea8fe25	-0.33006397
163	0xbef2a745	-0.47393242
164	0xbe80dd0f	-0.25168654
165	0xbebc0d45	-0.36728874
166	0xbf164a27	-0.587069
167	0xbe273c91	-0.16331698
168	0xbdd77db3	-0.10522022
169	0xbe0991bb	-0.13434498
170	0x3e687d73	0.22704105
171	0x3ecae84c	0.39630353
172	0x3ef0a98b	0.4700435
173	0xbddbcd39	-0.107325025
174	0x3f0b010f	0.5429849
175	0x3ee225fc	0.44169605
176	0x3e0a0c26	0.13481197
177	0x3eaf9eb9	0.34300783
178	0xbf347545	-0.7049144
179	0x3ec06217	0.37574837
180	0x3e9691e1	0.29408172
181	0xbedf0ffb	-0.4356688
182	0x3eb4fc42	0.35348707
183	0xbb163cc2	-0.0022924398
184	0xbd0be5a9	-0.034154568
185	0xbf3b809b	-0.7324311
186	0x3e140b0d	0.1445734
187	0xbeb9b814	-0.36273253
188	0xbeaefbab	-0.34176382
189	0x3e8bc8c3	0.27301607
190	0xbef25eff	-0.473381
191	0xbe74fe5a	-0.23925152
192	0xbdea5094	-0.1144115
193	0x3e2258fd	0.15854259
194	0xbe56bf66	-0.2097145
195	0x3ca39aa9	0.019971209
196	0x3dc1c0fb	0.09460636
197	0x3e1c8ca5	0.15288027
198	0x3f0cb991	0.5497065
199	0xbeaad872	-0.3336826
200	0xbe54ce62	-0.20781854
201	0xbd1cbc56	-0.03826555
202	0x3f54de0f	0.83151335
203	0xbe331d5a	-0.17491665
204	0xbe8e47d4	-0.27789176
205	0xbe88e8b3	-0.26740035
206	0x3f07fee9	0.5312334
207	0xbd6c63a8	-0.057712227
208	0xbe28f08a	-0.16498008
209	0x3f1220a8	0.5708108
210	0xbf033919	-0.51259
211	0x3eeab962	0.4584456
212	0xbd20b4cd	-0.039234925
213	0x3e7054e2	0.2346988
214	0xbe14b876	-0.14523491
215	0x3a95fd4f	0.001144329
216	0x3d415c47	0.047207143
217	0xbc8a5f8f	-0.016891269
218	0xbea0e2cf	-0.3142304
219	0x3e129069	0.143129
220	0xbebe26f0	-0.37139082
221	0x3ebb8105	0.36621872
222	0xbf38f8e0	-0.72254753
223	0x3edb2320	0.42800236
224	0x3dd9b0cb	0.10629424
225	0x3dda07fe	0.10646056
226	0x3ddde5e0	0.10834861
227	0xbe83b6e6	-0.25725478
228	0x3dfdf147	0.123995356
229	0x3e299762	0.16561654
230	0x3e94b677	0.2904546
231	0x3e898632	0.26860195
232	0xbe317926	-0.1733137
233	0x3eac3959	0.33637503
234	0x3c82e4bc	0.01597821
235	0xbc42cdc8	-0.011889882
236	0x3e32291b	0.17398493
237	0x3e00e2c2	0.12586501
238	0x3e9c02f6	0.3047101
239	0x3eb2e30f	0.34938857
240	0x3bbb9da7	0.0057255807
241	0xbe975916	-0.29560155
242	0xbeb7ae92	-0.35875374
243	0xbeadfd2e	-0.33982223
244	0x3e1d9094	0.15387183
245	0x3dd63673	0.10459604
246	0xbd05559a	-0.03255234
247	0x3e0292b8	0.12751281
248	0xbd5c3fd0	-0.053771794
249	0x3e968782	0.2940026
250	0xbc75a9fa	-0.014994139
251	0x3e4bd262	0.19904473
252	0xbf0354a0	-0.51301
253	0x3e240eda	0.1602129
254	0xbdbb3910	-0.09141743
255	0xbe13dba7	-0.1443926

network_body._body_endoder.seq_layers.2.bias f4 [128]
0	0xbd3fe23d	-0.046846617
1	0x3a2fe428	0.0006709718
2	0x3c9501f0	0.0181894
3	0x3c66b1a7	0.014080442
4	0xbd5da164	-0.054108992
5	0x3cb8fecf	0.02258244
6	0x3cddf497	0.027094169
7	0xbd177473	-0.03697629
8	0x3ca7fdd3	0.020506775
9	0xbd84b941	-0.06480647
10	0x3cbe80c3	0.023254758
11	0xbcb17ff6	-0.021667462
12	0xbd52fb1c	-0.051509008
13	0xbc80f0a9	-0.015739756
14	0xbc666711	-0.014062659
15	0x39cc58e0	0.0003897613
16	0xbce24808	-0.027622238
17	0x3d07d758	0.033164352
18	0x3c98c82b	0.018650135
19	0x3c3281ad	0.010895175
20	0xbc5f3fb5	-0.013626029
21	0x3c90b80d	0.017665887
22	0x3bbb28ac	0.0057116356
23	0xbd04d75c	-0.032431945
24	0x3c51bc0f	0.012801184
25	0xbcdd4aa9	-0.02701314
26	0xbda29d11	-0.07940114
27	0xbca13330	-0.019677728
28	0x3ceaf387	0.028680576
29	0x3c637219	0.0138821835
30	0x3d23c16c	0.039979383
31	0x3d621219	0.05519304
32	0xbd9cc354	-0.076544434
33	0x3b80fbee	0.0039362824
34	0x3d1cdc87	0.03829625
35	0x3ca9cd5d	0.020727808
36	0x3d143872	0.036186643
37	0xbcbac648	-0.022799626
38	0x3c430d0b	0.011904965
39	0x3bc6fb25	0.006072419
40	0x3d2e453e	0.042546503
41	0xbce8f726	-0.028438162
42	0xbc6bf1e9	-0.014400938
43	0x3d2322d5	0.03982814
44	0xbd1498f1	-0.03627867
45	0x3d355912	0.044274397
46	0xbc7b3849	-0.015333244
47	0xbd608ed2	-0.054823704
48	0xbd3ed22e	-0.04658716
49	0x3c9b4ae3	0.018956607
50	0x3d10d7d5	0.035362083
51	0x3d3567c0	0.044288397
52	0x3d22a1c0	0.039705038
53	0x3a94aa08	0.0011342177
54	0x3d2b968c	0.04189162
55	0x3c8c6820	0.017139494
56	0x3d16c77d	0.03681134
57	0x3c1601dd	0.009155718
58	0x3c1badf6	0.009501925
59	0x3d43e06c	0.047821447
60	0x3d4bf48a	0.049793757
61	0xbd2e793a	-0.04259608
62	0xbd5f49e0	-0.054513812
63	0x3c041115	0.008060713
64	0xbd296f46	-0.041365884
65	0x3d3a6551	0.04550678
66	0xbd23b193	-0.03996427
67	0xbd9d761e	-0.07688545
68	0xbd5cdb3d	-0.05392002
69	0x3cf74cb7	0.030187948
70	0x3d105355	0.03523572
71	0xbd9634f7	-0.07334321
72	0xbc8bb53a	-0.017054189
73	0x3c252273	0.010079014
74	0xbd659d09	-0.056057964
75	0x3bb1f4cc	0.0054307934
76	0xbcbc818c	-0.023010992
77	0xbc6a698f	-0.014307394
78	0x3ce58d3c	0.028021447
79	0xbad8524e	-0.0016504021
80	0x3c2aee2c	0.010432761
81	0xbd9e6a55	-0.07735125
82	0x3c3fc540	0.011704743
83	0x390c9bb8	0.0001340945
84	0x3c1e1345	0.009648149
85	0xbd9f40f9	-0.077760644
86	0x3c48fe4d	0.012267661
87	0x3d040765	0.032233614
88	0xbcf1a5ae	-0.029497948
89	0xbca3f7c2	-0.020015601
90	0x3c891b1d	0.016736561
91	0x3c98bbe8	0.018644288
92	0x3cb9640b	0.022630712
93	0xbd2eb267	-0.042650606
94	0xbd3d3651	-0.04619438
95	0x3c2d3749	0.010572263
96	0xbcedc392	-0.02902392
97	0x3d0a7c05	0.03380968
98	0x3cb001f0	0.021485299
99	0x3c3bdf25	0.011466776
100	0x3bf5d993	0.0075027435
101	0xbd1b94be	-0.03798365
102	0x3ba80c02	0.0051283846
103	0xbc7781e8	-0.015106656
104	0x3cb5a754	0.022174515
105	0xbd5a3375	-0.05327173
106	0x3c080e30	0.008304164
107	0x3d15864f	0.03650504
108	0x3cb4eea5	0.02208645
109	0xbcf7ee60	-0.030265033
110	0x3d07cd04	0.033154503
111	0x3c5a57ea	0.013326624
112	0x3c2cd9c2	0.010549964
113	0xbc3d8728	-0.011567868
114	0xbcee3748	-0.029079095
115	0xbb209046	-0.0024500056
116	0x3ce9eb72	0.028554652
117	0x3cbe1cad	0.023207033
118	0xbd90c939	-0.0706963
119	0x3d23d903	0.04000188
120	0xbd8b70c1	-0.068086155
121	0xbc08c970	-0.008348808
122	0xbd4fe22a	-0.050752796
123	0x3c7a75b3	0.015286851
124	0xb9a66355	-0.00031735995
125	0x3c88d9a1	0.016705336
126	0xbb842717	-0.00403298
127	0xbb097a35	-0.0020977382

network_body._body_endoder.seq_layers.2.weight f4 [128, 128]
0	0x3cca6083	0.024704223
1	0x3c500045	0.012695377
2	0xbdb9df38	-0.09075779
3	0x3d07499e	0.03302919
4	0xbd702bf4	-0.058635667
5	0x3e4a4f08	0.1975671
6	0xbd404917	-0.046944704
7	0xbc94346a	-0.0180914
8	0x3bcc706f	0.006238989
9	0x3bbd5a11	0.005778559
10	0xbe32e762	-0.17471078
11	0xbc9017a7	-0.017589403
12	0xbd1fa34e	-0.0389741
13	0x3e1b67d0	0.1517632
14	0xbe1f89c8	-0.15579903
15	0xbda596d0	-0.08085406
16	0x3d835e4f	0.06414472
17	0x3df1276c	0.11775097
18	0x3d66f973	0.056390237
19	0xbd9f39f3	-0.07774725
20	0x3d2304ac	0.039799377
21	0x3df88b90	0.121359944
22	0x3dc3456e	0.09534727
23	0xbdcd96c6	-0.100385234
24	0x3e05b233	0.13056259
25	0x3e4dd1d1	0.2009957
26	0xbd40e0a6	-0.04708924
27	0xbcfc5cf3	-0.03080604
28	0xbdafff65	-0.085936345
29	0xbdd626d5	-0.10456625
30	0xbd24d655	-0.040243465
31	0xbc224da1	-0.0099062035
32	0x3c90e9c9	0.017689602
33	0xbe08fef1	-0.13378502
34	0x3d18dc37	0.03731939
35	0xbe171bd3	-0.14756708
36	0xbaae659c	-0.0013305428
37	0xbdf12bc3	-0.11775925
38	0xbd99fcad	-0.07518897
39	0x3e517aa2	0.20456937
40	0xbde27749	-0.11057908
41	0x3d7c8373	0.061648797
42	0xbe1faf98	-0.15594327
43	0x3dbac970	0.091204524
44	0xbe1dfa50	-0.15427518
45	0x3ca0b3bc	0.019616954
46	0xbdfb684a	-0.12275751
47	0xbd66d9a6	-0.05635991
48	0xbdd5b8dd	-0.104356505
49	0xbd3e96f2	-0.04653067
50	0x3b265df6	0.0025385595
51	0xbddffeb6	-0.10937254
52	0x3de95323	0.1139281
53	0xbd1a8b40	-0.037730455
54	0x3c36f9e3	0.011167976
55	0x3c37d3bc	0.011219915
56	0xbe32d549	-0.17464174
57	0x3dcd9ff1	0.10040272
58	0x3d50dc4e	0.05099135
59	0xbce41fbf	-0.027847169
60	0x3d8ada8d	0.067799665
61	0xbe485a0c	-0.195656
62	0xbdae6402	-0.08515169
63	0xbdab78f6	-0.08372681
64	0x3d8363eb	0.06415542
65	0x3d658241	0.056032423
66	0xbd94f7ce	-0.072738275
67	0xbe55525c	-0.20832199
68	0xbce5d817	-0.028057141
69	0xbe135074	-0.14386159
70	0x3d7f07a5	0.06226315
71	0x3cc8a567	0.024492932
72	0xbcb2abab	-0.021810373
73	0x3e5ee3b1	0.21766545
74	0xbd68997d	-0.056787003
75	0x3e05f5cf	0.1308205
76	0x3dc58ab4	0.09645596
77	0xbdb2a0aa	-0.087220505
78	0x3d4b7717	0.04967412
79	0xbe162387	-0.1466199
80	0x3dc63332	0.096777335
81	0xbca4bc3c	-0.020109288
82	0x3d2c61bd	0.042085398
83	0x3cc239c0	0.023709178
84	0xbdbd097d	-0.09230325
85	0xbe3119b1	-0.17294957
86	0x3d24482c	0.04010789
87	0xbdcb02d7	-0.09912651
88	0x3c0a2b83	0.008433226
89	0xbd9d31de	-0.07675527
90	0xbd62d02e	-0.055374317
91	0x3d735eb4	0.059416488
92	0x3cb1f162	0.021721546
93	0x3d5fa8c2	0.0546043
94	0x3dadd9cf	0.08488809
95	0x3be70bfe	0.00705099
96	0x3d406274	0.046968892
97	0x3db31dfe	0.08745955
98	0xbe2e30e5	-0.1701084
99	0x3d2339c3	0.039850008
100	0x3d91647a	0.070992425
101	0x3dd97e59	0.10619802
102	0x3cf9f3ad	0.030511701
103	0x3dca61b7	0.09881919
104	0xbd963181	-0.07333661
105	0x3d8ea89a	0.06965752
106	0x3dd5bf95	0.10436932
107	0x3dca9c85	0.09893135
108	0x3d8516f7	0.06498521
109	0x3d2f63b9	0.042819712
110	0xbe2c7e67	-0.16845094
111	0xbddada9b	-0.10686227
112	0x3e2d4998	0.16922605
113	0x3d34a60f	0.04410368
114	0x3dafe32b	0.08588251
115	0xbe039eb3	-0.12853508
116	0xbc44247a	-0.011971587
117	0xbd85d96c	-0.065356106
118	0xbe0073f6	-0.12544236
119	0xbd8fd2e3	-0.07022645
120	0xbd42d910	-0.04757029
121	0xbd5e58d9	-0.05428395
122	0xbcc01e0d	-0.02345183
123	0x3d3e7f83	0.046508323
124	0x3cf2c8d8	0.029636785
125	0xbc62d25d	-0.0138441
126	0x3c344afa	0.011004204
127	0xbdc70150	-0.09717047
128	0xbca73a71	-0.02041361
129	0xbc547a63	-0.012968632
130	0x3dc5d6f4	0.0966014
131	0x3cf6cafe	0.030126091
132	0x3ddcd751	0.10783256
133	0xbcb00dd1	-0.021490963
134	0xbe240241	-0.16016485
135	0xbd392554	-0.045201614
136	0xbe51ec5d	-0.20500322
137	0xbd52a904	-0.051430717
138	0x3e2114d0	0.15730596
139	0x3e32c7ef	0.17459081
140	0xbe21eab3	-0.15812187
141	0xbd20c142	-0.039246805
142	0x3c4dd3e6	0.012562728
143	0xbeaad515	-0.33365694
144	0x3e0af40c	0.13569659
145	0xbcb838a0	-0.022487938
146	0x3d279b52	0.04091961
147	0x3e0c71dd	0.1371531
148	0xbe5ffe61	-0.21874382
149	0xbcf9e0e1	-0.030502738
150	0xbc8a6483	-0.01689363
151	0xbcce8cca	-0.025213618
152	0xbb62d28f	-0.0034610366
153	0xbcea8b2f	-0.028630821
154	0xbc45ac4b	-0.012065004
155	0xbda131e0	-0.07870841
156	0x3e30cc18	0.17265356
157	0x3ce504d0	0.027956396
158	0x3d2dafa6	0.04240384
159	0x3e0b9ba3	0.1363359
160	0x3dea47ea	0.11439498
161	0xbe233bea	-0.15940824
162	0xbcf82c3a	-0.030294526
163	0xbd334739	-0.043769095
164	0x3d0ebbe8	0.03484717
165	0x3dc979a6	0.09837656
166	0xbe264bdc	-0.16239876
167	0xbe17ab2c	-0.1481139
168	0xbcfaca27	-0.030613972
169	0x3d5093b3	0.050922107
170	0x3c2a6f0a	0.01040245
171	0x3cc84f71	0.024451943
172	0xbdf03fb4	-0.117309004
173	0xbe53aa8e	-0.2067053
174	0x3e62c58b	0.22145669
175	0x3da736c9	0.08164746
176	0xbc48feef	-0.012267812
177	0xbd302996	-0.04300841
178	0xbcdbc31a	-0.02682643
179	0xbc4f5f20	-0.012656957
180	0xbca460f3	-0.02006576
181	0xbb3df8ba	-0.0028987364
182	0xbd228342	-0.03967596
183	0xbd442d62	-0.047894843
184	0xbd0e0da8	-0.034680992
185	0xbd8afbbb	-0.06786295
186	0x3d173fc0	0.03692603
187	0xbd808bed	-0.06276689
188	0x3d026651	0.031835858
189	0xbdc96a49	-0.098347254
190	0xbdbfa74a	-0.0935808
191	0x39f4c516	0.00046686147
192	0x3d8c05fc	0.06837079
193	0x3e2aa404	0.1666413
194	0xbc96663e	-0.0183593
195	0xbcef2090	-0.029190332
196	0xbdc595b5	-0.09647695
197	0x3e0b1e68	0.13585818
198	0xbdcd5b23	-0.100271486
199	0xbd9ed48e	-0.07755385
200	0x3ab1d5e7	0.0013567776
201	0x3cb645d3	0.022250092
202	0x3de531d3	0.11191144
203	0x3e799fec	0.24377412
204	0x3db23d52	0.08703102
205	0x39bb1eb6	0.000356903
206	0xbd6aeffc	-0.057357773
207	0xbbe6140d	-0.007021433
208	0xbbf294d7	-0.007402997
209	0x3e57b15e	0.21063754
210	0x3da45eb2	0.08025874
211	0x3df363bb	0.118842565
212	0xbe36c5ff	-0.17848967
213	0x3d914ef2	0.07095136
214	0xbe3ee441	-0.1864176
215	0x3d9419a4	0.07231453
216	0xbd8eda72	-0.06975259
217	0xbdcf8360	-0.1013248
218	0xbc6da78d	-0.014505279
219	0x3df62d2e	0.12020336
220	0x3e089e34	0.133416
221	0x3c151032	0.0090981
222	0x3e506b50	0.20353436
223	0x3dc8aaf3	0.09798231
224	0xbc95e93d	-0.018299693
225	0xbbd239aa	-0.0064155655
226	0xbc73dd48	-0.0148843005
227	0xbc92155d	-0.017832452
228	0x3e0746ee	0.13210651
229	0xbdcc984b	-0.09989985
230	0xbe358b65	-0.17728956
231	0xbd43cd74	-0.047803357
232	0xbd0a0585	-0.03369667
233	0x3db89b30	0.09013975
234	0xbd8efe93	-0.0698215
235	0xbc8ebc35	-0.017423728
236	0xbdc81cc2	-0.0977111
237	0xbe11e952	-0.14249161
238	0x3e004696	0.12526926
239	0x3d2dc724	0.042426243
240	0x3d4471be	0.047960036
241	0xbe096d6d	-0.13420649
242	0xbe0442e0	-0.12916136
243	0xbe041f42	-0.12902549
244	0x3cd0c3fa	0.025484074
245	0x3e0fbbec	0.1403653
246	0xbd221434	-0.03957005
247	0x3e0a5ea1	0.1351266
248	0x3cf9b6a7	0.030482603
249	0xb9f8c1bc	-0.0004744659
250	0x3ad44ee4	0.0016197828
251	0x3d8bf4a4	0.06833771
252	0xbe3b8df4	-0.1831587
253	0xbd718565	-0.058965106
254	0xbdb1ca0c	-0.086811155
255	0x3cfe23bd	0.0310229

network_body.observation_encoder.processors.0.normalizer.running_mean f4 [10]
0	0x41843db0	16.53012
1	0x3d33a392	0.043857165
2	0x3f5fa186	0.8735584
3	0x00000000	0.0
4	0x3ebc684c	0.36798322
5	0xc053d6b7	-3.3099802
6	0x00000000	0.0
7	0x00000000	0.0
8	0x3e59fe13	0.21288328
9	0x41319f74	11.101429
